model_best.pth (torch, 923749 bytes, 8 tensors)

embedding.weight f4 [128, 256]
00000000: 8e76 d23d ec52 2b3f 0e01 c1bf ec41 10bf
00000010: 928a 83be 64e7 313e 678f a7bf 0738 c43e
00000020: 9415 a43f 8a88 87be 5ac9 acbe c07c 74be
00000030: 3503 703f 3dbe 62bf 39b7 c73e 904e b73f
00000040: a491 c2bb 8b83 3d3c 9da8 23bf b075 0bbf
00000050: 255a f73e af8d 553f 89f8 db3e 4f14 9a3a
00000060: 2a2b 53be 0577 b3bf 6aaa 6cbf a239 8f3f
00000070: 947f 87be bd8b 0cbf 8aa4 48bf 77c0 d73f
00000080: 6c66 d13d 5d51 c53e 780e 4fbe 41e4 2c3f
00000090: a9b1 77be 18a5 36bf f760 d2bf b38f 953f
000000a0: 2bed c6be 0c2c 4bbd e579 29bf 3649 903f
000000b0: badc ec3f feb2 533e 85a9 6e3d 96b1 913f
000000c0: 5826 64bf 413d b33e f38e c63e ef3a f83e
000000d0: d52e 67be 19b8 ffbe 4b97 d6bd 01e6 f33e
000000e0: 3c12 8bbe c022 01bf cf01 dfbf 88c1 47bf
000000f0: 9e30 8abf 1292 1a3d 31c8 913f 35c1 dcbd
00000100: 67f1 3b3f 4768 9ebf e261 703c feba 093f
00000110: 20c5 0b3f e011 74be 82c4 95bf 9d11 b33e
00000120: f1d3 42be 7952 8b3f 3ddc c1bd 7f3b 46bf
00000130: f19f 6e3f cae2 b63c c1a5 cebe af7b 36bf
00000140: 33df 09be b451 ec3e be42 ba3f c7c2 f2bf
00000150: c127 0c40 dc1b b63d fbc2 47bf 309f 903f
00000160: e36e acbe cee5 f93e a7bd 2b3f 3fe7 04bf
00000170: d72d 993f ad93 803f 5f6e 093d 0abc 1dbf
00000180: f965 dcbf 26ae 73bf d5f2 b0be 3fc3 a33f
00000190: ac9d ec3d 1670 a4be 4a30 b7be e1ff 2bbf
000001a0: 63d7 0abf e944 393f 2a46 d33d 47ce b03e
000001b0: 465f 89bf 6db1 3bbf ab91 a2bf 873a 7dbf
000001c0: 1aa9 96bf dfe6 12bf 595b a1bf 9079 413e
000001d0: 9a5f f13f a928 073f a6fe 37bf 97f7 143f
000001e0: 2a43 acbe d100 94be c1d7 f2bd 57f1 83bf
000001f0: 81f3 6b3e 78ed f2be 84be f1be faa1 39bf
00000200: 297e 123f ea56 f73e 6377 68bf bc19 b3be
00000210: bb75 1d3d fda1 1ebf 418a c0be 993e d8be
00000220: a9ca 64be 7cf5 d9bc c316 bebf edec 193f
00000230: 6252 d43e a4cc 553d 2ca9 f8be fc6d 0340
00000240: 3c98 e4bf 42ed 2fbe 9aa2 bbbd 2452 93bd
00000250: ff3e 3cbd c6db 1d3f 2727 263f 4a27 afbf
00000260: ce31 3a3f 8f61 a3bf a213 4dbe e625 463f
00000270: adb4 3e3f 7b79 43bf b61c 073e 4528 a93e
00000280: 96c4 64bf c6ca 303f 52a8 02bf e92b a83f
00000290: 8e5b 47be aaad fcbd 834d fe3f 5fb8 513f
000002a0: 3a1b 113f aac7 0cbf 2ced 00bf c249 813e
000002b0: 7b98 bb3c 1c12 193e 2709 19be f995 ec3d
000002c0: 343d 7c3f e7e6 903f 3d49 d5be 428b 42bf
000002d0: 1dd0 52bd db15 92bf 9677 553f 977d c6bf
000002e0: c45d 723f 8fff 17bf 6509 f73e 90f7 ca3e
000002f0: 88b4 94bf 8286 e13e b232 43bf 0b40 c03f
00000300: 3477 c1bd 57ee 4e3f 21ed a73f 0d6a a5bd
00000310: 5795 873e b854 083f c438 dc3f fd56 ba3d
00000320: f53c e93d 55d5 233e a463 b3be 4599 b2bf
00000330: bc76 773f 6559 b13f f4cf b63e d2a1 553d
00000340: de3b 0abf baf6 943e 374d 8dbf 5350 c73f
00000350: 3cdf 883e 0005 61bf f89e 853e 0a49 4a3d
00000360: a3e4 623f 065f 95bf 6c54 853e 3063 14bf
00000370: b422 1bbf c336 f5be d848 ce3e 22f3 72be
00000380: 1ec1 4e3f ce54 883f 7856 9b3f 4d90 c93d
00000390: eab9 c93f a039 03bf 7149 f13d 22cc ae3e
000003a0: eac9 c3bf 15f3 1e3f d60a 17bf 0bb7 1cbf
000003b0: 7029 28be de63 38bf 12ff 01bf fc75 19bf
000003c0: 91fb 12c0 8d9b 0b3e 20ef 9cbf ecd9 b7be
000003d0: 93a3 393e 9478 ad3e bcf2 49be 7a96 1abe
000003e0: be3f 4b3f 832a 05c0 b144 1e3f dc60 ba3e
000003f0: 6761 2bbd 2490 853e 6b0b f13e cfd6 17bf
0.10276519 0.66923404 -1.5078447 -0.5635059 -0.25691658 0.17373425 -1.3090638 0.38323995
1.2819085 -0.2647136 -0.3374737 -0.23875713 0.93754894 -0.8857153 0.39006975 1.432085
-0.005937772 0.011567007 -0.6392916 -0.5447645 0.48310962 0.83419317 0.42963055 0.001175532
-0.20621935 -1.4020697 -0.9244753 1.1189463 -0.26464522 -0.54900724 -0.78376067 1.6855611
0.102246135 0.38538638 -0.20220363 0.6753579 -0.24188866 -0.71345663 -1.6435841 1.1684479
-0.3885282 -0.049602553 -0.6620162 1.1272342 1.850486 0.20673749 0.058267135 1.138232
-0.8912101 0.3500767 0.38780937 0.48482463 -0.22576459 -0.49945143 -0.104780756 0.47636417
-0.2716235 -0.5044365 -1.7422427 -0.7802968 -1.0796087 0.03773696 1.1389219 -0.10779039
0.73415226 -1.2375573 0.014671775 0.5380095 0.54597664 -0.23834944 -1.1700594 0.34974375
-0.19026162 1.0884544 -0.09465835 -0.77434534 0.932128 0.022324938 -0.40360835 -0.71282476
-0.1346405 0.46156085 1.4551618 -1.8965691 2.1899264 0.088920325 -0.7803189 1.129858
-0.3367835 0.4880814 0.6708626 -0.51915354 1.1967114 1.0045067 0.033552524 -0.6161505
-1.721862 -0.95187604 -0.34560266 1.2793959 0.11553511 -0.32116765 -0.3577903 -0.67187315
-0.54234904 0.72370774 0.10316117 0.34532377 -1.07322 -0.73317605 -1.2700704 -0.9891743
-1.1770356 -0.5738353 -1.2606002 0.18894029 1.88573 0.5279642 -0.7187294 0.5819029
-0.33644992 -0.28906873 -0.11857558 -1.0308026 0.23042108 -0.474468 -0.47215664 -0.7251278
0.57223755 0.48308498 -0.9080717 -0.3498057 0.038442355 -0.61965925 -0.3760548 -0.42235258
-0.22342934 -0.026606314 -1.4850696 0.60127145 0.41469103 0.052197114 -0.48566568 2.053588
-1.7858958 -0.1718035 -0.09161873 -0.071934015 -0.045958515 0.6166347 0.6490349 -1.3683865
0.72732246 -1.2764148 -0.2002702 0.7740158 0.7449444 -0.7635724 0.13194546 0.33038536
-0.89362466 0.6905941 -0.51038086 1.31384 -0.19468519 -0.12337811 1.9867405 0.8192195
0.5668217 -0.54992163 -0.50361896 0.25251585 0.022899857 0.14948314 -0.14944898 0.115520425
0.9853089 1.1320466 -0.4165744 -0.7599374 -0.051468004 -1.141292 0.833856 -1.5507077
0.94674325 -0.59374326 0.48249355 0.39642 -1.1617594 0.44047934 -0.7624923 1.5019544
-0.09446564 0.8083243 1.3119241 -0.08076868 0.26481125 0.5325427 1.7204823 0.09098623
0.1138858 0.15999348 -0.35036957 -1.3953024 0.9666555 1.3855406 0.3570553 0.052156277
-0.539976 0.29094487 -1.1039189 1.5571388 0.26732814 -0.87898254 0.26097846 0.04938606
0.8863012 -1.1669624 0.2604097 -0.5796385 -0.6059983 -0.47893342 0.4028995 -0.2372556
0.80763423 1.065088 1.2135763 0.09841976 1.5759861 -0.51259804 0.11781586 0.34140116
-1.5295994 0.62089664 -0.5900091 -0.612168 -0.16422057 -0.72027385 -0.5077983 -0.59945655
-2.2966044 0.13633557 -1.2260475 -0.3590845 0.18128805 0.33881056 -0.19721502 -0.15096465
0.7939414 -2.0807197 0.61823565 0.36402023 -0.041840937 0.26086533 0.47079024 -0.59312147

Wq.weight f4 [256, 256]
00000000: 0077 763b ae96 bc3c 32ff a13a fad7 6b3c
00000010: 800f a63b 7f12 b3bc 37c7 933c 3c13 c13c
00000020: 90ef 83bc 63e5 cbbc 3b7e 20bb 1b76 7cba
00000030: 8e6c 733c 5073 3d3c c6ac a7bc f471 dfb9
00000040: 7159 b0bc 4408 20bc cb6d 373c e36f fdbb
00000050: aa78 3e3c 4b83 1a3c bdfa 58bc c181 433c
00000060: fa11 25bc 9f1f a5bc 7b39 8ebc c81f 17bc
00000070: f131 943c 194f fe3b 56c8 17bc 79c8 923c
00000080: 22fc 853c df27 973a 46fc fdbc 69eb e83c
00000090: a7a7 1fbb f752 7d3c 6585 163c aea1 9e3c
000000a0: 4f45 93bc 9385 333c 219b 62bc a7d9 d2bb
000000b0: 033e 8dbb 423e 1fbc f4f7 043c dc5f f4bc
000000c0: b43f 813c ff34 aebc 06a9 cfbb 0cec b03b
000000d0: a23c 863c 8508 c43b e4c2 8f3c 1b06 3c3c
000000e0: 8c32 a73c a2c0 1f3b a957 3c3c 4039 5dbb
000000f0: 5e02 003c ada1 1cbc c0c9 db3b 4082 98bb
00000100: 5de9 8cbc e6c6 313c 4658 6dbb 2623 463c
00000110: 8a45 013c 5197 c9bc 14ab e5bc 567b 42bc
00000120: 02d1 833b d207 51bc 74b0 e33a 33e4 923b
00000130: 8796 e2bb 16ad 1c3c 35bf e8bb cac0 78bb
00000140: 2f07 8e3c 39f5 c1bb 452b afbb 5347 96ba
00000150: e691 6c3b cf46 44bb 6e14 30bc f271 333c
00000160: d81c 02bb 364a be3c b386 823c f41f 2aba
00000170: 3959 983b 78af 9bbc 2c27 b63c 252f 3cbc
00000180: 08d7 0f3a a24d a9bb 271a 4a39 5abb 3d3b
00000190: 0630 30bc ada2 84bb a65a 28bc 9b34 083c
000001a0: 54e2 d73c 877e 59bc 30ed 81bc 4ad6 553c
000001b0: 8a82 eabb f115 4fbc 7c24 b3bc 7f93 b539
000001c0: 38ea f0bb 784f 973b 326a 783c eca8 2d3c
000001d0: 8bdb ba3c 03c5 9c3c 225d a9bc 5f55 d33b
000001e0: 3874 5c3b 3382 bbba 8e3e 373c 1f40 fbbc
000001f0: 4e14 743a bc93 a9bb bd8c 81bc 6e35 ae3c
00000200: 77e4 abbc 2850 26bc e544 ac3b c607 39bc
00000210: f424 2d3c 63eb dfbb 66a2 2b3c 83ae e6bb
00000220: a883 903b 630d 0abc 8fc0 b03c 1c13 14b9
00000230: 65ed 913c d898 223d 5425 4cbb b3f9 31bc
00000240: efc9 c03c b0b1 b1bb dc7f 88bc 82db f1bb
00000250: 65bc fb3a e885 1c3b a014 30ba 3f24 3d3c
00000260: 8dea 30bc 991e b93c b0b3 033b f94d adbc
00000270: 6e98 933c 0185 513b 4ac8 303b 9d82 c33c
00000280: 6982 4bbc 09da d8ba 3f71 51bb 51d4 83bc
00000290: 2b8b 7ebc 12ac 153c 9a85 fdbb b657 46bc
000002a0: d952 9bbc a582 7c3b 34b6 08bb 3046 79bc
000002b0: eec3 0a3c cbd2 30bc 85d0 543c b922 7f3c
000002c0: 329d 63bc 6278 63bb d148 3a3c c169 72bc
000002d0: f60e b5bc 8422 d33b 8737 99bc e3e9 953c
000002e0: 7fca b5bb a9b0 cdbc e06c 483b 553b 683b
000002f0: 8e30 84bb ce79 12bc 63ea 5ebc f85b cbbc
00000300: 366a 31bc aed9 83bc ece5 a8bb b814 673c
00000310: f1de b9bc 88a5 b63b 354a 85bc fdb3 63bc
00000320: 5ba2 c13c 15f3 93bb 2ae2 613b 7011 b9bc
00000330: b4b5 94ba a4f9 b8bc 13b9 e4bb 53bd 943c
00000340: 6a75 2c3c d1b9 82bc 207c b2bc c96e 31bc
00000350: bbc9 e0bb e347 5b3b 25c5 bbbc 6732 acbc
00000360: 3902 1f3a f708 abbc d67a b239 6c46 4f3c
00000370: 382f 443c 7751 273c c051 50bc deef 263c
00000380: 2b07 1ab9 43c3 83bc 0f4d 1f3c de49 b63b
00000390: 15cb f6bb 33a2 9c3c 9324 4bbc 58bd 58bc
000003a0: 9e2d 203c 3768 1ebc 19ab 4939 1295 123d
000003b0: 7390 e63b 1909 023d 116b 9cbc 33d1 903b
000003c0: b484 3e3b cd37 483c e0e9 b5bc cdf8 7ebc
000003d0: 66c0 9d3b be98 833c 07cb af3c cd44 623a
000003e0: 4efa aa3c ae5e a63b 8d14 77bb 41b3 263c
000003f0: 195d 13bc a911 263c fad5 12bc 13cf 1a3c
0.003760755 0.023021068 0.0012359379 0.014394755 0.0050677657 -0.021859406 0.018039329 0.023568742
-0.016105443 -0.024889654 -0.0024489302 -0.0009630636 0.014857424 0.011563137 -0.020468127 -0.00042618776
-0.021527024 -0.009767596 0.01119561 -0.007734285 0.011625448 0.009430717 -0.013243374 0.011932791
-0.010075087 -0.02015668 -0.017361393 -0.009223886 0.01809022 0.007760894 -0.009264072 0.017917858
0.016355578 0.0011532268 -0.031004082 0.028432565 -0.0024361403 0.015461675 0.009187077 0.019364204
-0.017977385 0.01095714 -0.013830931 -0.0064346376 -0.004310371 -0.009719433 0.008115757 -0.029830866
0.015777446 -0.021265505 -0.006337288 0.0053992327 0.016386334 0.005982461 0.017548986 0.011476065
0.020409845 0.0024376293 0.011495509 -0.0033756047 0.007813064 -0.009560031 0.0067074 -0.004654199
-0.01720112 0.010850644 -0.0036215945 0.012093341 0.007890115 -0.024608286 -0.028035678 -0.011870226
0.0040227184 -0.012758212 0.0017371313 0.00448277 -0.006914917 0.009562751 -0.007102872 -0.0037956708
0.01733741 -0.0059191254 -0.0053457343 -0.0011465348 0.0036097704 -0.0029949432 -0.010747058 0.01095246
-0.0019853618 0.023228746 0.01593337 -0.0006489747 0.004649308 -0.019004568 0.022235475 -0.0114858495
0.0005487059 -0.0051667253 0.00019273964 0.0028950782 -0.010753637 -0.004047713 -0.0102755185 0.008313323
0.026353039 -0.013274795 -0.01586017 0.013051579 -0.0071566748 -0.012639509 -0.021867983 0.00034632903
-0.00735214 0.0046176277 0.015162038 0.010599356 0.022809764 0.019136911 -0.020674292 0.006449386
0.0033638608 -0.001430577 0.011184348 -0.030670224 0.0009310887 -0.005175082 -0.01581418 0.021265712
-0.020982964 -0.010150947 0.0052572363 -0.011293357 0.010567892 -0.00683348 0.0104757305 -0.0070398464
0.004410226 -0.008426043 0.021576194 -0.00014121499 0.017813394 0.039696544 -0.003115018 -0.010862756
0.02353379 -0.0054227933 -0.01666253 -0.0073809037 0.0019205926 0.0023883525 -0.00067169406 0.011544286
-0.010798109 0.022597598 0.0020096116 -0.021155344 0.01801702 0.0031970146 0.002697485 0.023865992
-0.012421229 -0.0016544472 -0.003195837 -0.016092451 -0.01553611 0.009135263 -0.007736874 -0.012105873
-0.018960403 0.0038530019 -0.0020860555 -0.015214488 0.008469565 -0.010792444 0.012989168 0.015572243
-0.013892459 -0.0034709205 0.0113699 -0.0147957215 -0.02210186 0.0064433236 -0.018703235 0.018300002
-0.005547821 -0.025108652 0.0030582473 0.0035435755 -0.0040341085 -0.008940173 -0.013605687 -0.024824128
-0.010828545 -0.016095009 -0.005154362 0.014104061 -0.022689315 0.005573932 -0.016270736 -0.013897893
0.023636987 -0.0045150616 0.003446708 -0.022591323 -0.0011345656 -0.022579975 -0.0069800704 0.018156683
0.010526041 -0.015957745 -0.021787703 -0.010829636 -0.0068599856 0.0033459596 -0.022921154 -0.021020127
0.00060657 -0.020878298 0.00034042326 0.012651067 0.011974148 0.010212294 -0.012714803 0.010189025
-0.00014689255 -0.016084319 0.009722962 0.005563005 -0.0075315335 0.019120311 -0.012398857 -0.013228737
0.009776501 -0.009668401 0.00019232593 0.035786696 0.0070362627 0.031746957 -0.019094022 0.0044194697
0.0029070796 0.012220335 -0.022206247 -0.015562248 0.0048141954 0.016064044 0.021459116 0.0008631468
0.020871308 0.0050772047 -0.0037701458 0.010174573 -0.008994364 0.010136046 -0.008962149 0.009448784

Wq.bias f4 [256]
00000000: 1aa5 273b bcc1 153a bd6c e3bb 3c5f 993d
00000010: 31e4 5d3b eb2a b13d e5fd ad3b d48f a7bb
00000020: f649 be3b 5373 56bc 7250 1b3a b2e2 24bc
00000030: 85b8 0c3c 1daf d23b d3f8 d1bb b3ba 40bb
00000040: a85f 33bb f6a0 833b 63fb ab3b 21a4 4e3c
00000050: c1bf 29bc 68c3 813a c018 9c3c aebb 683b
00000060: 09fb 0a3c b877 863e 0f9c e8bb 2599 81bb
00000070: aa18 003c c947 713b 5ba7 f13b c0e8 babb
00000080: ec39 98bc 4bcc 14bf 48bd 963b f447 61bb
00000090: 6b8b 8b3b 0628 7f3e 2681 5e3c 499c debb
000000a0: 3186 94ba e0a8 2f3b 1077 d13a 8f71 263b
000000b0: 60b7 8d3b 3f6f 2cbc 7bae 153b fb06 babb
000000c0: 5860 873b 19da f7bb b9f3 dabb bf24 033e
000000d0: f300 603b 24d0 c83e 798a aa3b a277 3abf
000000e0: c282 923b 743f 1c3b e335 483b b866 633b
000000f0: 16e6 56bc cf97 8c3d 92d4 bdbb d048 0e3d
00000100: 6bb4 613c 2874 67bb f59d 7abb cdac 253c
00000110: 9d36 deba 47e2 d23a ae22 be3e c8d2 873a
00000120: 3a26 e239 9337 143c c6c1 1cbb 3634 76bb
00000130: 4af7 8ebb 3e0f afbb f703 efbd 1a78 a2ba
00000140: 33e6 6aba 0d4c ed3b 0fa7 c33a 7a1a 84ba
00000150: 81fb b4b9 acab 9dbd e53a 8e3b c727 ab3a
00000160: 037e 85bb 7769 88ba 080b 163d a37a 073c
00000170: a2fc dd3b bead ab3b dfb8 263c d051 25bb
00000180: 27e8 75bb 7402 10bc aa41 d5bb 4449 c7bd
00000190: 0c4e 51bb 5b92 1f3d 498d 85b7 22e0 c73b
000001a0: d437 013b 19f9 19be dd44 5e3a 59da 2d3b
000001b0: 260e d83d a054 373e 1ef5 f4bb 6117 d13b
000001c0: e8dd cebb 1ef5 b1ba d38a 003b 2be4 04be
000001d0: 3f6f 61bb cbd6 213b 7d8e 14bc 014b aa3e
000001e0: 21a4 1439 244c e0ba 6383 7ebc 84e1 1e3c
000001f0: c3d4 d8b9 2658 53bb ebd3 bc3a d7ad e0ba
00000200: f83e 68be 7b63 d1be 4c80 083d 3114 313b
00000210: 076b 8bbd b396 133f 6b33 d33a c418 00bf
00000220: 9a6d 66bd da92 043b 11de c73b 5f49 3bbb
00000230: fdc7 02bf 9ff5 173f 9e69 ad38 eab4 23bb
00000240: 8e5a 363c 80ce a4bb 3409 24bc a669 f73b
00000250: a303 943e 2e51 053e de5f 4cbc 1e88 633c
00000260: 9ec4 233b 0844 ef3d 7e0a 08bc 82ce 833a
00000270: 3621 4cba ab83 b33b 6d20 c3ba 4f59 8cba
00000280: e746 7839 429e 04bb 5da1 333e 3934 a2bb
00000290: 504b aaba 04d9 f53b a336 2ebc c179 56bb
000002a0: 11e8 0fba 7806 aa3b 7534 54bb b7e7 70ba
000002b0: 5cfe ff3b e150 d43a ae55 0abf f209 083c
000002c0: c2cf e1ba 6918 d2ba 0c23 a039 9f22 b8bb
000002d0: df98 6b3e 4486 f6ba 5660 a4bd 34a4 45be
000002e0: 5d63 053e 9232 95bb 6f6a 0cba 5530 303e
000002f0: 6fa8 30ba 562c 5bbe 22e2 4c3d 3c7d 403b
00000300: 95b2 083c 92e3 113c 43ee afbe 502a e73b
00000310: 0c98 083c c5c8 a13b fecf 4b39 297b 7ebb
00000320: d171 97bb c238 80ba 5e60 4fb9 b2bf 29bc
00000330: d66c 2dbe f72d a6bb fdab 3bbb eb9f e6bc
00000340: 5b58 eeba cf19 2fbb 68a2 0337 d301 703c
00000350: f642 f4be 1501 6ebb 361a 3a3c e04b 883b
00000360: 724c 183c ef9d 55b9 8d1c 4ebe 8e60 7dbb
00000370: ae76 26bc 3a2d 623b 4b7d cebb b363 cf3a
00000380: 22e6 92bc 7d34 a33e fb67 b93b b9b1 f7bb
00000390: 2c55 16bb b3ce 033e e2da 68bb 6c5d 38bc
000003a0: 9915 51bb 5051 103b 6523 663e 5b0c 9a3d
000003b0: b58b 59bb 2651 1cbd 221b 06bc 50de 383c
000003c0: 33c3 8a3e 2212 88bb 3770 9dbb 42e9 33bb
000003d0: 2d2f c6ba e71f b139 d260 71bb 2825 f7bb
000003e0: 98f8 98ba d22a f53d 7d26 92bb 019f cb3c
000003f0: fcbd f0bb a6b8 9b3c f776 3d3c 8061 b0b8
0.0025580586 0.00057127676 -0.006940453 0.07488868 0.0033857937 0.08650764 0.0053098076 -0.005113581
0.0058071567 -0.013089019 0.0005924768 -0.010063814 0.008588915 0.0064295665 -0.006407836 -0.0029408156
-0.0027370248 0.004016991 0.0052484735 0.012612374 -0.010360659 0.0009900155 0.01905477 0.0035512256
0.008482703 0.26263213 -0.0070986818 -0.003955024 0.00781838 0.003681647 0.0073746867 -0.0057040155
-0.018582307 -0.58124226 0.004600201 -0.0034375163 0.0042585633 0.24917611 0.013580596 -0.006793533
-0.0011331496 0.0026803538 0.0015980918 0.0025397276 0.0043248385 -0.01052457 0.0022839594 -0.0056771017
0.004131358 -0.007563841 -0.006681886 0.12806986 0.0034180253 0.392213 0.0052044955 -0.72838795
0.004471154 0.0023841532 0.0030549697 0.0034698676 -0.01311638 0.06864893 -0.0057931626 0.03473741
0.013775925 -0.0035317037 -0.0038241122 0.010112 -0.0016953532 0.0016089164 0.37135834 0.00103625
0.0004313456 0.009046453 -0.002391921 -0.0037567741 -0.0043629752 -0.005342393 -0.11670678 -0.0012395412
-0.0008960694 0.007241732 0.0014927107 -0.0010078691 -0.0003451966 -0.076987594 0.004340517 0.0013058119
-0.0040738597 -0.0010407408 0.036631614 0.008268985 0.006774501 0.0052392175 0.010175913 -0.0025225766
-0.0037522407 -0.008789647 -0.006508072 -0.09730771 -0.0031937389 0.038957935 -1.5920627e-05 0.0060997168
0.0019717114 -0.1503643 0.00084788894 0.002652785 0.105495736 0.17903376 -0.0074755093 0.006380961
-0.0063130744 -0.0013577079 0.0019613996 -0.12977664 -0.0034398583 0.0024694677 -0.009067175 0.33260348
0.00014175523 -0.0017112535 -0.015534255 0.009697322 -0.0004135725 -0.0032248585 0.0014406418 -0.0017141652
-0.2268027 -0.4089621 0.03332548 0.0027020092 -0.06807523 0.57651824 0.0016113346 -0.5003779
-0.056256868 0.0020229132 0.0060994704 -0.0028577668 -0.5108641 0.59359163 8.2689556e-05 -0.002497966
0.011129988 -0.0050294995 -0.01001196 0.007550436 0.28909025 0.13019249 -0.012474028 0.013887433
0.002498902 0.11682898 -0.008303283 0.0010056051 -0.0007786931 0.0054783425 -0.0014886983 -0.0010707768
0.00023677536 -0.002023593 0.17542024 -0.004950073 -0.0012992416 0.007502677 -0.010633144 -0.003272638
-0.00054895977 0.0051887594 -0.00323799 -0.00091898016 0.0078123044 0.001619842 -0.54036987 0.008303152
-0.0017228054 -0.0016029003 0.0003054369 -0.0056193615 0.23007534 -0.0018808325 -0.08026187 -0.1930092
0.13026185 -0.0045531476 -0.0005356436 0.17205937 -0.0006738966 -0.21403632 0.050020345 0.002937152
0.0083433585 0.008904355 -0.34361467 0.0070546046 0.008337032 0.0049372637 0.00019437072 -0.0038830733
-0.0046217223 -0.000978254 -0.00019776958 -0.010360645 -0.16936049 -0.0050713974 -0.0028636449 -0.028152427
-0.0018184291 -0.0026718264 7.846022e-06 0.014648872 -0.47707337 -0.0036316563 0.011358788 0.0041594356
0.00929557 -0.00020372098 -0.20128079 -0.0038662287 -0.010160131 0.003451182 -0.006301557 0.0015822559
-0.017932002 0.31875983 0.0056581474 -0.007559028 -0.002293895 0.12871818 -0.0035530855 -0.011252742
-0.0031903742 0.0022021122 0.2247444 0.07521888 -0.0033194844 -0.038163327 -0.00818518 0.011283472
0.2710205 -0.004152552 -0.004804637 -0.0027452265 -0.0015120261 0.0003378384 -0.003683139 -0.007542271
-0.0011670766 0.11971058 -0.0044601546 0.024856092 -0.0073468667 0.019008946 0.011564008 -8.410495e-05

Wk.weight f4 [256, 256]
00000000: 5b20 103c 7357 b33b 70ab cb3b 5c4b c73c
00000010: a5dc 073c 62d8 993b 523f 553c f177 9c3c
00000020: 07cb 0cbc 7831 c03b d3fe 97bc 9dce c43c
00000030: 4f86 593c 2f6e bc3b 1632 1bbc 492b c1ba
00000040: 943b 013b b169 8f3c 7bbc 54bc 3ecc 95bc
00000050: 0556 813c 2855 a339 a804 52bc 6986 a13b
00000060: 5061 aa3c 3e4b 21bc dc7e 17bc 73ec cc3c
00000070: bc9f 343c e615 d4bc d915 703b 6d42 8a3a
00000080: c406 0a3d abff c83a 2ace 643c 4da9 983c
00000090: b102 66bc 0f3d d3ba f63c 873c a8e0 813c
000000a0: c51a ae3c d34b 4c3c 4b2b 6d3c 99b8 8a3c
000000b0: 3160 83ba 8010 fc3b 8daf 2e3c 3fa8 8dbb
000000c0: f56b d43c 3c70 36bc dba6 b73a 6917 313c
000000d0: b028 3fbc 08e1 713c 1500 9abc 0362 9ebc
000000e0: f273 aa3c 0cbd 9e3b 35af 90bc 24fb 663a
000000f0: 260d e8bb 00d5 babb 39e7 25bc 0a02 b1bb
00000100: 7cdd aa3c fdec 943c fa02 8fbb 7d87 14bc
00000110: 22b8 a1bc 132e be3b e32f 1bbb 5b07 10bc
00000120: 6d95 34bc 7e93 d0bc f9a4 423c 60ba 16ba
00000130: 2e5c 4a3b f2c6 00bb 35f4 993c 32b8 2bbc
00000140: 9808 6f3c 3df7 243c d02a 863b a9e4 3b3c
00000150: 210a 46bc 4998 373c cec5 ba3a f43b 283c
00000160: 220e 903b d66c 423c e516 4b3c 262a a63c
00000170: dc82 123c 426b b4bb 1c71 2d3b ff16 203c
00000180: ae3a f1ba 17c1 833c 8a44 ce39 612d 78bc
00000190: b206 98bc 0530 833c a161 48bc 9808 b53b
000001a0: 8ae6 943c 9beb d3b9 343e f93a eabd bb3c
000001b0: c583 80bc 140d fc3b fe8c 65bb d003 75bc
000001c0: 332c 213c 2847 703c 0020 ae3c 392a 603c
000001d0: 53a7 9a3c db6a 20bb 5aa1 97bb ecdb b2bb
000001e0: b08d c33b ce7c 28bb 4373 84bc 5610 a93c
000001f0: 448a 343b 9a17 13bc b267 fa3b cb27 a73b
00000200: 3443 8bbc 1143 2f3c 178f 4ebb e2ad f03b
00000210: 7281 9e3c c35b 85bb bae9 6fb9 d4f1 0a3c
00000220: fe23 5a3b bee9 b3bc 477d 2139 9ce7 debb
00000230: a7d0 c73c 7e47 623b 9fc6 87bb cd11 b5bb
00000240: fffc 17bc 128e 3ebb 8b2e 643c 4687 83bb
00000250: eb28 93bc e680 973b 1d0a 32bc fe95 743c
00000260: 8e9a fabb f592 003b 90f4 cf3a d8ba 023c
00000270: 0932 933b 036f c73c 4fb0 90bc 63f0 69bc
00000280: ca04 133b bbb0 0cbb 386a 8fbb 0861 6f3c
00000290: 3aa9 073c 0c81 2e3c da33 05bc 2c22 f23c
000002a0: e9d7 213c d9c8 5abb 7228 4d3c 7f4d 8abc
000002b0: 089b 913c ed4e 903c 75ae c73b ea58 e03b
000002c0: c46a 6abc 1e5c 4e3c 6f6d 8cbc 04a7 353b
000002d0: 12ac d1bc ca28 743b 8581 4e3c e32f 93bb
000002e0: 6fec 60bb cfe3 693c 74a0 833c 7389 7e3b
000002f0: 3d1a e4ba 5bcf ff3b a5d7 663c 0ae1 6d3c
00000300: fa18 8b3b 7ae8 1bba a04b 2e3c 60ca 26bc
00000310: 5f55 dfbb 6b05 b13c 1c62 26bc 56a9 3bbc
00000320: 6dc1 293c 53ab 1bbc eeba dfbb 39bf 083c
00000330: 83e6 3fbc 8a4c bebc cd68 13bc 071d 933a
00000340: 3e1c 8d3c dd0b 283c 5b28 043c e526 a8bb
00000350: 3e7a debb 9b44 103d 8ed4 6f3b a8b3 093c
00000360: 31f6 ad3c 15bc 193b 6bab d2bb f73e 223c
00000370: 5448 563b 27ca 4a3c a9a8 ba3c 7bc7 9e3c
00000380: 42fc 22bb c076 91bc 0d2a 543c a522 9b3c
00000390: 791a ab3c e237 82bc 0d15 7c3b bd5e 4a3b
000003a0: cddc cb3c 31d9 803c 41aa 133b 354c b0bc
000003b0: 53a5 afbc 048e 253c 6dde 4f3b 96c2 08bc
000003c0: 18a7 973c 35e2 cabc e7da 9cbc 1d01 b3bc
000003d0: 5d9d 44bc 64e1 31bb 451b 3ebc 129a a9bc
000003e0: 309c 77bc b391 2e3c ddfb c83b 9cfa ff3c
000003f0: 7d3c 55bc 5369 573b 04fd 63bc 8bd5 9abc
0.008796777 0.0054730712 0.0062155053 0.024327926 0.008292352 0.0046949843 0.013015585 0.019100161
-0.008593327 0.005865272 -0.018554127 0.024024302 0.013276651 0.0057504396 -0.009472391 -0.0014737631
0.001971935 0.017506452 -0.01298439 -0.018285867 0.015788088 0.0003115323 -0.012818493 0.004929353
0.020798355 -0.009844599 -0.009246554 0.025015092 0.011024412 -0.025889348 0.0036634116 0.0010548361
0.03369786 0.0015334984 0.013965169 0.018635416 -0.014038728 -0.0016116219 0.01650856 0.015854195
0.021253 0.01246925 0.014475654 0.016933726 -0.0010023174 0.0076923966 0.010661972 -0.004323035
0.025930384 -0.011135157 0.0014011519 0.010808804 -0.0116674155 0.014763124 -0.018798867 -0.019333845
0.02080724 0.0048443135 -0.01766167 0.00088112266 -0.0070816455 -0.005701661 -0.010125929 -0.0054018544
0.020857565 0.018179411 -0.0043643685 -0.009065506 -0.019741122 0.0058038323 -0.0023679666 -0.008790816
-0.011021954 -0.025460955 0.011880153 -0.0005749818 0.0030877697 -0.001964983 0.018793205 -0.010480927
0.014589451 0.010068712 0.004094459 0.011468091 -0.012087376 0.011205741 0.0014249624 0.0102682
0.004396216 0.011866769 0.012395595 0.02028377 0.008942332 -0.00550595 0.0026465124 0.009771108
-0.0018404329 0.016083283 0.00039342447 -0.015147538 -0.01855788 0.016014108 -0.012230308 0.005524706
0.018176336 -0.00040420596 0.001901573 0.022917707 -0.015687833 0.0076919887 -0.0035026665 -0.014954522
0.009837198 0.0146654025 0.021255493 0.013681942 0.018878615 -0.0024477753 -0.004627389 -0.0054583456
0.005967818 -0.0025709155 -0.016168242 0.020637672 0.0027548233 -0.008977795 0.007641756 0.0051011792
-0.016999818 0.010697142 -0.0031518394 0.007344947 0.019348834 -0.0040697767 -0.00022879886 0.008480508
0.0033285613 -0.021962043 0.00015400826 -0.0068025123 0.024391485 0.0034527476 -0.0041435505 -0.0055258037
-0.009276628 -0.002907638 0.013927112 -0.0040139286 -0.017963847 0.00462352 -0.010866669 0.014928339
-0.007647819 0.0019618843 0.0015865732 0.007979117 0.0044920486 0.024344927 -0.017662195 -0.014278504
0.0022433274 -0.0021467644 -0.004376676 0.014610536 0.008280093 0.010650884 -0.008130038 0.02955731
0.009878137 -0.0033383875 0.01252185 -0.016882656 0.01777412 0.01761576 0.006093795 0.006846537
-0.0143076815 0.012595205 -0.017142026 0.0027717957 -0.025594745 0.0037255757 0.012604122 -0.0044917925
-0.0034320613 0.014275505 0.016067721 0.003883925 -0.0017402839 0.007806701 0.0140895 0.0145189855
0.004244921 -0.00059474225 0.010638148 -0.010180086 -0.006815597 0.021609029 -0.010155227 -0.011453947
0.010361058 -0.009501296 -0.0068277037 0.008346372 -0.011712673 -0.023229856 -0.008997154 0.0011223861
0.017225381 0.010256735 0.008066262 -0.0051315897 -0.0067894747 0.035221677 0.0036595198 0.00840465
0.021235557 0.0023458053 -0.006429126 0.009902707 0.003269692 0.012377298 0.022785502 0.01938223
-0.0024869596 -0.01775682 0.012949479 0.018937418 0.020886647 -0.015895788 0.0038464696 0.0030879222
0.02488556 0.015728565 0.00225319 -0.021520713 -0.021441137 0.01010466 0.003171827 -0.008347174
0.018512294 -0.024766067 -0.01914735 -0.021851117 -0.012000409 -0.00271424 -0.011603181 -0.02070335
-0.015112922 0.010654855 0.00613354 0.03124743 -0.01301491 0.0032869175 -0.013915304 -0.018900653

Wk.bias f4 [256]
00000000: 455e 713c bc1f 6d3c af20 66bc 1b80 bfbc
00000010: 70b7 283b cb13 9ebc fda9 8abc 039e 92bc
00000020: 58ad 9bbc 9ff1 b43c e79b 95bb 1058 86bc
00000030: 1264 a2bc ff4d 71bc 7b53 9dbc 8857 0fbc
00000040: e2a5 123c 38c3 a43b 548f f2bb 396f b73b
00000050: 3b01 61bc da64 9ebb 4e6f 88bb 5838 10bc
00000060: 74c9 e9bb 7915 acbc 3bb0 cb3c de54 903a
00000070: 7a38 8ebc 8ad9 c7bc 28e0 ac3c 7625 abbc
00000080: 2767 2dbc e37d 9c3c aba0 94bc f9dd b9bc
00000090: 3403 b0bc ea09 e4bc 6710 30bb 39b7 3ebc
000000a0: 891f b33c 339b 9ebc 37c2 493c b7ff 8ebc
000000b0: 04e1 4fbc a53f 8abb aba8 8d3c 4a77 233c
000000c0: 138a b73b 8487 27ba 6a4b 30bb 264c 80bc
000000d0: f199 413b a3b1 d9bb 4b1a 5e3c 2c10 833c
000000e0: 4b76 a33c 58a6 5ebc d855 c03b ddde b1bc
000000f0: c84e 95ba b06d a2bc 6f15 41bc b094 3d3c
00000100: 583e aa3c 40e6 dfbb 58e7 1d3c fb27 c2bc
00000110: 2050 f4bb 8b04 cfbb 9168 303c b363 3dbc
00000120: bce4 9d3c 8c8e a8bc 70f1 a9bb 742c 7d3b
00000130: 8589 99bc 9157 4fbc cd14 953c 81e5 f8bb
00000140: 19ce e1bb 935d 503c 50ff 823c a9e9 473c
00000150: b4e0 223c 9905 b9bb 5ca3 b1bc c923 b9ba
00000160: acd4 9b3b 7f1a 8bbc 9638 3abb d66c c7bc
00000170: cc70 64bc 5525 553b affb 3e3c 2f45 11bc
00000180: 929f 3b3c c93f 1a39 2c94 6f3c 8f75 6ebc
00000190: 255b a4bc 175c 12bc 86ad 26bc c8cf c8bc
000001a0: d034 783c 8ab2 433c 7d22 c4bc 3f78 7d3a
000001b0: 875c 503b 7baf 38bc 4f77 7f3c 3df8 45bc
000001c0: d035 a8bc efab 96bc 83ad e1bb afb0 76bc
000001d0: 0004 4abc 3fbb 4b3c a91c 043b 8830 14bc
000001e0: 6484 e2bb 13c4 8fbb 8b64 8ebb c1c0 43bc
000001f0: ed08 a43c 0109 0fbc 6b64 843c 0f75 b2b9
00000200: 6fae 90bc a3a9 f23c 70e7 c5bc 80e4 433c
00000210: db50 25bc 4a6b d53c bad0 aa3c 56c7 223b
00000220: 8cb1 893c 9e51 ccbb dd67 bc3c 9161 913c
00000230: 721a 6b3c f0e4 d9bc ef79 3f3c 108d c7bc
00000240: 69da b03c aeb5 81bc 9aec 0cbc f1f1 9bbc
00000250: 9fa9 c33c f2fb 8dbb 1023 5dbb f04d d23b
00000260: 8aff 8eba 2b20 bf3b d7d3 afbc 4fdd 183c
00000270: 26c0 1a3b 452d a2bb 3b4c 913b cea0 203c
00000280: f824 95bb e1e4 4dbc 12f0 15bb 2c87 af3c
00000290: e3ac 21bc f834 633c 9228 763c 8e8a 513c
000002a0: c07b acbc 40fa 1f3c bf67 65bc bfdb 7a3c
000002b0: 0ec8 99bc 3f8c 05bc 888e 983a ca9f a5bc
000002c0: f7bc 97bc b046 c03c 6401 6fbb 30c1 72bc
000002d0: 5620 b93c 3689 aabb ca79 34bb bc50 373c
000002e0: 232c 9bbc c4ab b7bc 3f19 14ba a7b8 b93c
000002f0: ad6f 85bc 3423 b7b9 1719 8f3c 7fa8 583c
00000300: 6c49 abbc f21b 023c 1155 4b3b d8e2 dbbb
00000310: d73f 1ebc a986 88bc eaa6 9dbc d940 5a3c
00000320: 318d 8b3c 0af5 7dbb 32e9 c3bc d745 89bc
00000330: d2d0 5aba 5860 983c e593 bfbc a3fa a2b9
00000340: 2a18 0d3c 9c84 d1bb 2530 aa3c e19f 823b
00000350: 3dd2 b63c d598 06bc cd07 95bc 18c5 683c
00000360: 46e0 86bc f078 9dbc 1633 913c e4d1 cabc
00000370: 390a 483c 86d9 02bc 8b18 8e3c cd83 50bc
00000380: 0007 03bc 6d67 a7bc da48 5e3b ec45 8a3c
00000390: 6263 2f3c e20e 043c 9b21 a73b 4789 543c
000003a0: ebd4 993c 0e99 9bbb b818 3dbc 0ba7 2f3c
000003b0: 41bb 813b 29dd 1abb 3713 fa3b 1e30 0f3c
000003c0: d390 fd3b 3569 073c ff0b 763c 0592 c83c
000003d0: 2d0d 6b3c 6400 a93c 3518 773c a346 babb
000003e0: da59 74bc 4171 b9bc a923 4a3c 8584 67bb
000003f0: c29b 323c 606f 60bc 4e1c 4fbb 3d02 36bc
0.014731948 0.014472898 -0.014045878 -0.023376515 0.0025744103 -0.019296547 -0.01692676 -0.017897611
-0.019003555 0.02208787 -0.004565704 -0.016399413 -0.019823108 -0.014728068 -0.019204846 -0.008748896
0.008950682 0.0050281547 -0.00740234 0.0055979756 -0.0137332035 -0.0048338 -0.004163659 -0.008802496
-0.007134611 -0.021006333 0.024864307 0.001101162 -0.017360914 -0.024395723 0.02110298 -0.020891886
-0.0105836755 0.019102996 -0.018143019 -0.022688853 -0.021485902 -0.027836759 -0.0026865245 -0.011640363
0.021865623 -0.019361114 0.012314371 -0.017455919 -0.012687925 -0.004219013 0.017292341 0.009977171
0.0056011765 -0.0006390738 -0.002690042 -0.01566131 0.002954122 -0.0066434904 0.013556073 0.015998922
0.019953867 -0.013589464 0.0058696084 -0.021712715 -0.0011391276 -0.019827694 -0.011784895 0.011571094
0.020781681 -0.006832868 0.009637676 -0.023700705 -0.0074558407 -0.0063176802 0.010767118 -0.011559415
0.019274108 -0.020575784 -0.0051862523 0.0038631232 -0.018742332 -0.012655155 0.018198395 -0.0075957184
-0.006891024 0.012717622 0.015990883 0.012201705 0.009941269 -0.0056464192 -0.021684341 -0.0014125045
0.004755577 -0.016980408 -0.0028415076 -0.02434389 -0.0139429085 0.0032523472 0.011656686 -0.008866592
0.011451619 0.00014710346 0.014622729 -0.014554395 -0.020062992 -0.008933089 -0.010173207 -0.02451314
0.01514931 0.0119444225 -0.023942227 0.0009669102 0.0031793432 -0.011272307 0.01559241 -0.01208311
-0.020533472 -0.018392531 -0.0068871393 -0.015056773 -0.012330055 0.01243478 0.0020158684 -0.009044774
-0.006912755 -0.0043873875 -0.0043454817 -0.011947812 0.020023787 -0.008730174 0.016161164 -0.0003403802
-0.017661301 0.029621905 -0.02415821 0.011956334 -0.010090078 0.026052136 0.020851482 0.0024838052
0.016808294 -0.0062353155 0.022998745 0.017746719 0.014349567 -0.026598424 0.011686786 -0.024359256
0.021588521 -0.015833702 -0.008601332 -0.019036265 0.023884593 -0.0043330127 -0.0033742823 0.0064179823
-0.0010909897 0.005832692 -0.021463318 0.009330108 0.0023613065 -0.004949244 0.004434136 0.009803964
-0.004551526 -0.012566776 -0.0022878689 0.02142676 -0.00986788 0.013867609 0.015024321 0.012789382
-0.021055102 0.009764254 -0.014001786 0.015311181 -0.018772151 -0.008151113 0.0011639157 -0.020217795
-0.018522723 0.023471206 -0.0036469335 -0.014816567 0.022598427 -0.005204345 -0.0027538412 0.011188682
-0.018941944 -0.022420771 -0.0005649514 0.022671057 -0.016288603 -0.00034930708 0.017468018 0.013223766
-0.020909034 0.007941233 0.0031026045 -0.0067103915 -0.009658775 -0.016665773 -0.01924463 0.013321125
0.017035099 -0.003875079 -0.023914907 -0.016756935 -0.00083471567 0.018600628 -0.023385951 -0.00031085787
0.008611718 -0.006393982 0.02077491 0.003986344 0.022317046 -0.008215149 -0.018192196 0.014207147
-0.016464364 -0.019222707 0.017724555 -0.024758287 0.0122094685 -0.007986432 0.017345687 -0.012726736
-0.007997274 -0.02043506 0.0033917935 0.016879044 0.010704847 0.008060189 0.0051004416 0.012972183
0.018778285 -0.00474847 -0.011541538 0.0107209785 0.00395909 -0.0023630357 0.007631685 0.008739499
0.0077382117 0.008264829 0.0150175085 0.02448369 0.014346403 0.02063007 0.015081455 -0.00568469
-0.014914 -0.022637011 0.012337604 -0.003532679 0.010901393 -0.013698429 -0.0031602564 -0.011108932

Wv.weight f4 [256, 256]
00000000: 15a5 283c 69ff b83d a3f9 8c3d 1c47 ecbd
00000010: 1950 eb3c 2c42 5abd 5ba5 80bd 6fe2 22bd
00000020: 1d93 c8bd a1f1 4cbd ccd0 103e 062e 253d
00000030: 71b5 76bc 472b 2a3d 584a fc3c 2c4b 0c3d
00000040: 517a 633d a9fe 603d a66a d93d f011 7e3c
00000050: 52c1 823d b636 013e 870f f6bd 65dd 033b
00000060: 3217 a83d 000a 1c3b 9532 99bc 16dc 9a3d
00000070: b4f5 e8bd 37fe 1c3b 3f57 263c 3fe3 c2bc
00000080: f035 d03d 8617 4cbe 44da 85bd 98fe 96bd
00000090: d761 e6bc 8112 943d 08db d8bd 323b c0b9
000000a0: 97d0 983c a58b d83d a791 87bb 927e 213d
000000b0: f488 54bd f050 33bd 162f 023d 3480 82bc
000000c0: 56d7 c13d a2dc c83d 4c39 143d 1a2c 2bbc
000000d0: a1a2 663d d465 a03d a1ab 13bd 933c 04bd
000000e0: 8798 0dbc beb2 943d 8bf9 62bc f33a 5f3d
000000f0: 813e 6cbc 5fc3 4ebe f83a 8cbd 9c8b c8bb
00000100: 5fe9 8cbd 092f a5bc 76ea 183d 14c0 b93d
00000110: 82c7 f33d 734c 953d 6b6c 443c 0b42 06be
00000120: d34f 693d 821b 48bd 7f12 15bd 38a3 45bd
00000130: 052a 1c3e 9da0 88bc e874 683d 1dbf 12be
00000140: 6b37 113e 26b5 fd3c 107b 44bd ee4b ee3b
00000150: 8a49 a3bc 8ada 8b3c 6ebd 153e 97bf fc3d
00000160: d188 133b 4a27 bf3c 681e b4bd fb61 883d
00000170: 4414 a2bc 0a1a 08be bce7 db3d e34c 0f3d
00000180: 4f38 d0bd 1f10 513d 5a70 123e 1859 e3bd
00000190: e73b 6c3d 896c e3bd fd4b 843c 5124 d0ba
000001a0: 64f6 e2bd 79da 0e3d 3b2b db3d b35f d7bd
000001b0: 2a60 0a3d 5c0e 87bd 5882 f3bd c048 f23d
000001c0: e782 af3d bef9 513d ca02 8c3c 0012 e6bb
000001d0: 9730 2b3d 448a e23b 05dc 93bd e941 21bc
000001e0: 5391 3a3c d4e5 06bd 73a3 863d fa2f 23bd
000001f0: 2917 ddbd c206 be3b 3697 c13b 1036 983d
00000200: c0d5 86bd 4a1a c73d a8e6 173d 1071 08bd
00000210: 8ed4 00be fa80 0a3d 23bf d7bd a61b fc3c
00000220: e956 a93d 7e44 c6bd f428 a4ba 7dfd 1bbe
00000230: 4e71 ccbd 4be0 cebd abad 2c3d acfd 933d
00000240: 2912 af3d f297 73bc 26ce ab3b 622a a3bd
00000250: 1e30 b5bd 25f4 b0bc 2837 ef3d f603 c73d
00000260: 0472 b739 7d92 f53c 4f85 ca3d 9021 00be
00000270: 02c3 2a3d ffd6 eb3c 9716 58bd 6a71 0f3d
00000280: de08 ecba 505f 6c3c 5cde 573d 6537 7cbd
00000290: 86dc a23d 6e5b 8ebd 479e 873d 9cb1 1d3e
000002a0: aaff 023c 77e8 94bc f8d5 9f3b 3931 4e3b
000002b0: 3b6d af3d 811c 05bd c07d 9e3d 021f 803d
000002c0: d5fa 383d c1de d2bd f8e0 6dbc 412d 0c3d
000002d0: ca4a 233e d17c 303d 008f 84bc 541c f8bd
000002e0: db97 6b3d 9d3e 063c 3541 8fbd fa66 4dbd
000002f0: 94ae 883d 7223 763d 54b8 4e3d 3348 e5bd
00000300: 691f 12bd 872f 8d3d 8628 67bd cb20 09be
00000310: debc ce3b 9d41 b93d d6de db3d 2132 143e
00000320: 90fe 8f3c bea5 e8bb 27d7 52bc f8ed d43d
00000330: 494a a8bc ee01 89bc 0a26 693d d6f0 8b3c
00000340: 1f49 d7bd 5536 bf3a 7032 f63d 930f a6bc
00000350: 06a0 6ebd e1dd 01bd eee7 a13b 870e 6e3d
00000360: da6c 11bc 0be5 c83c 3d9e 1a3e 2242 983d
00000370: 4813 ebbc 441d 673d 06d3 02be 43c8 ba3c
00000380: 8de4 32bc 3493 c6bc abcb 63bd 850e 503d
00000390: 57f4 bd3d 3371 933d 6604 d5bd c192 253d
000003a0: 3758 693c 161f cc3d b278 a2bd f8fe bb3b
000003b0: ac60 89bc dbcb 2dba 81ed 42bc 9405 02be
000003c0: 9a3c 043e 6a3d 5abb c9b0 193e 5dd2 dabd
000003d0: 4aa8 2fbd 2654 81bb b61f aa3c 6468 ebbd
000003e0: 6043 d9bd 61b7 5c3c d672 e03d abac 38be
000003f0: 0516 45bd 9f6e 2c3b 280f 1d3d 3a48 233e
0.010293265 0.090330906 0.06883552 -0.115370005 0.028724717 -0.053285763 -0.06281539 -0.039766725
-0.09793685 -0.050035123 0.1414215 0.040327094 -0.015057907 0.04154518 0.030797169 0.034251377
0.055536572 0.054930363 0.10616045 0.015507206 0.06384529 0.12618527 -0.1201468 0.0020120975
0.08207549 0.0023809671 -0.018700877 0.07561509 -0.11374989 0.0023955235 0.010152637 -0.02379
0.10166538 -0.19930848 -0.065357715 -0.07372779 -0.028122826 0.07230092 -0.10588652 -0.00036665198
0.01865415 0.1057351 -0.004137236 0.039427347 -0.05188842 -0.04377836 0.031783186 -0.015930273
0.094649 0.09807707 0.036187455 -0.010447526 0.05630744 0.07831922 -0.03605235 -0.03228433
-0.008642322 0.07260655 -0.013853441 0.054499578 -0.014419199 -0.20191716 -0.06847185 -0.0061201584
-0.068804495 -0.02016403 0.037332974 0.09069839 0.119032875 0.07289972 0.0119887395 -0.13111131
0.056960892 -0.04885436 -0.036394592 -0.04825136 0.15250404 -0.016678149 0.056752115 -0.14330716
0.14181297 0.030970167 -0.047968924 0.007272235 -0.019932527 0.017071981 0.14623043 0.1234123
0.002251197 0.023334164 -0.08794862 0.06659313 -0.019785054 -0.13291183 0.10737559 0.034985434
-0.1016699 0.051040765 0.14300671 -0.11100978 0.057674315 -0.11104686 0.016149515 -0.0015879964
-0.110821515 0.03487632 0.10701605 -0.105163 0.033783115 -0.06594536 -0.118900955 0.11830282
0.085698895 0.051263563 0.017091174 -0.0070211887 0.041794386 0.006913455 -0.072197 -0.009842374
0.011387187 -0.032934025 0.06574144 -0.039840676 -0.10795433 0.0057991454 0.0059079183 0.074321866
-0.06583738 0.09721811 0.037085205 -0.03331095 -0.12581083 0.033814408 -0.10534503 0.030774903
0.0826853 -0.096810326 -0.0012524412 -0.15233417 -0.09982549 -0.10101374 0.04215781 0.072261184
0.08548386 -0.01486777 0.0052430807 -0.07967068 -0.08847068 -0.021600792 0.11680442 0.09717552
0.00034989428 0.029977078 0.09888708 -0.12512803 0.04168988 0.028789042 -0.05275592 0.03502027
-0.0018008014 0.014427021 0.052702293 -0.061576266 0.07952218 -0.069510326 0.06621986 0.15399784
0.007995525 -0.018177254 0.004877802 0.0031462444 0.08565756 -0.032497887 0.07738829 0.06255914
0.045161087 -0.10296393 -0.014518969 0.034222845 0.15946499 0.043087784 -0.016181469 -0.12114778
0.057517868 0.008193639 -0.06994859 -0.050147034 0.06673923 0.060092397 0.050468758 -0.111954115
-0.035674486 0.06893831 -0.05643513 -0.13391416 0.006309136 0.09045718 0.10735862 0.14472248
0.01757744 -0.007099836 -0.012868679 0.103969514 -0.020543234 -0.016724553 0.056921043 0.017082613
-0.105119936 0.0014588336 0.12021339 -0.020271098 -0.05825808 -0.03170574 0.0049409783 0.058119323
-0.00887605 0.024523279 0.15099426 0.07434489 -0.028695717 0.056424394 -0.12775812 0.02280057
-0.010918749 -0.024240114 -0.055614155 0.050795097 0.0927512 0.071993254 -0.104012296 0.04042316
0.014242223 0.09966867 -0.07933177 0.0057371818 -0.01676973 -0.0006629803 -0.011897446 -0.1269744
0.12913743 -0.0033300766 0.15008844 -0.10684655 -0.042885102 -0.003946799 0.020767074 -0.1149452
-0.10608554 0.013471455 0.10959403 -0.18034618 -0.048116703 0.0026311052 0.038344532 0.15945521

Wv.bias f4 [256]
00000000: 7f9f 8e3d 0bb1 b0bd c74f 223e 4c75 403d
00000010: 79ba 8abd d144 2cbd 883d a63d 8ea4 c0bd
00000020: c1b2 8cbd ff35 1b3a b82c 833d ea75 1cbc
00000030: 25fd 49bd e554 173e 7751 47bd 6e53 93bd
00000040: 10f3 ee3c 9184 76bc c531 503d c6e1 5e3c
00000050: 4049 053d db9c 9ebd 582b 07bd 0d90 d3bd
00000060: bcc4 2a3d 0d2a df3d de39 df3d b174 1ebe
00000070: e58f 00bd 5890 b13d 18e8 443d 0ccb 01be
00000080: ce54 35bd 6f70 2ebc 9a63 613d 3028 23bc
00000090: 59b8 3b3d b5ab edbc 113a 013e 942c 15be
000000a0: f273 0fbd ebb9 d23c 48be c03d 6bb9 95bd
000000b0: 7ee7 eabd 217f 11bd 9dbc a13d 4275 94bd
000000c0: d02a 5d3d 8076 f9bd 41f8 8bbd 8491 12be
000000d0: a0ae d53c cb4e 853d a9b6 b63c 403a c2bd
000000e0: 425b 153d 425f 523d ca0c ac3d 3728 d23d
000000f0: 36f5 713b 0cb4 0dbd ce37 3b3c 8d0f ecbd
00000100: 4838 bfbc 8fe6 053e a20e d0bc dbf1 c2bd
00000110: cd5e 7b3c e459 8e3c a20d 743d 31c8 18bd
00000120: 6e43 933d ea36 72bd aa67 6abd 6fc6 f23d
00000130: ddba bdbd 5f68 39bd e5e2 6c3d 995c f23c
00000140: b0dd 0cbd 43e0 723d 8e7f 15be 8b99 a83e
00000150: bc19 16be 6d23 cdbd 3fae 143d b15b b1bd
00000160: e5ba 0e3d 7d30 553d 8e8b 74bc 5966 0ebe
00000170: 57a2 a5bc 491e dbbc 91a2 88bd da16 cb3b
00000180: 22cf bb3d 555e 983d e484 393d 458a b8bd
00000190: 9b93 d03d 8e02 243a 310b db3c 3b88 c53d
000001a0: e6d2 27bd 6d09 b23c dc3a ef3d 2f29 1abe
000001b0: c7e2 8b3c 456c 5d3d 7e8a b73d bd90 8c3d
000001c0: 2011 623d 1e2e ce3c 51c9 5e3e 1995 2b3d
000001d0: a6d5 06bd a305 a2bc 7ebc 0abd 759a ecbd
000001e0: f815 abbd 02e9 d3bd ed0f 11bd af52 2d3c
000001f0: fd8c 753d eca9 653c 036f b23d 4715 a13d
00000200: 25f0 1cbc 0cc0 0f3d baba 8c3d f77f b83b
00000210: 3c43 38ba 4e7e 713d bb36 58bd 8d1c 893d
00000220: 339a 0c3d 23c3 fbbc 9a5f cf3d 4ac9 973c
00000230: 2529 acbd 7bce 373c fd85 40bc ca38 c6bd
00000240: 24ec 933d 8c07 3a3d 5536 abbd ef6e e0bc
00000250: 32fa c63c 590e 9dbc 64b3 9abc 477d 863e
00000260: adb9 97bc 857c 223d fb8c 273d b423 35be
00000270: 1c4e a9bd 95a6 9ebc d53d 9abd a0e0 9dbd
00000280: 2751 bf3d e99d e5bd 8c79 dfbc de9f c9bd
00000290: f5b0 d73c 626c bb3d 08fb 38be 51ad 98bd
000002a0: 29dc c63b bb7e c63d f5f7 a4bc 8634 293d
000002b0: 9bab acbc ba07 97bc 038a e9bc 2514 6f3d
000002c0: abb3 d0bd 5717 22bd dc10 1dbc 6383 3e3e
000002d0: 69cb 2e3b 0f33 7e3d 2ce9 28bd 3820 ad3d
000002e0: f01e 84bd 7051 503d 8527 a03c 1d8d 293d
000002f0: 6c7d 053e 5d70 2ebd 28e6 a13d d114 2fbd
00000300: c8c5 31bd 6ddc bcbd 3e2f 2abd b7bb 1c3d
00000310: 6787 18bd ed46 65bd d7d9 dabd d9af d9bd
00000320: 753a 52bd 185c 84bd 169f 293e 2fbc 743e
00000330: 3e41 953d ff9a 7bbd 860b bbbc f5cd a93d
00000340: c727 2d3d 253f 1fbc ad44 693b 8e63 3fbe
00000350: ea4b acbd 1d5c 1ebd 3580 cebd 3684 e8ba
00000360: f24c 05bd b238 c93d 882d 4fbc 96dd 823d
00000370: 0bb6 4a3d 63f3 7b3d c9d5 653c 1652 a6bd
00000380: b4a2 bc3b 4078 a3bd db8e 7cbd 0dfa 0ebd
00000390: 6c45 483b b5d7 ed3d 8bac 39bc 0dc1 4b3d
000003a0: 9157 fc3d ba27 863d ca1b 21bd fbd2 f2bc
000003b0: 5e59 a93d 3d39 a33d f705 ac3d 425b 783d
000003c0: 300a dd3d b0b3 d73c 53fa bb3d 5481 e53c
000003d0: ce71 a23c 3679 5a3d cbc1 82bc d440 1cbd
000003e0: b629 05be c925 0a3e b2a4 f7bd 2702 a03d
000003f0: 87bd 0bbd 93a2 56bd bc81 0ebd 03b5 bd3d
0.06964015 -0.08627518 0.15850745 0.046986863 -0.06773848 -0.042057816 0.08117205 -0.09406386
-0.06870032 0.0005920827 0.06405014 -0.009549597 -0.049313683 0.14778478 -0.048661675 -0.07193647
0.029168636 -0.015046255 0.050828714 0.013603633 0.03254056 -0.077447616 -0.03300032 -0.1033021
0.041691527 0.108966924 0.10899709 -0.15474202 -0.03138723 0.086701095 0.048072904 -0.12675112
-0.04427033 -0.010646923 0.055026628 -0.009958312 0.045830105 -0.02901254 0.12619807 -0.14567786
-0.035022683 0.025723418 0.09411293 -0.07310756 -0.11469935 -0.03552163 0.07897303 -0.07248928
0.053995907 -0.12180805 -0.0683446 -0.14313322 0.026084244 0.06509169 0.022303896 -0.094837666
0.036463983 0.051360376 0.08400877 0.102615766 0.0036919839 -0.034595534 0.011426879 -0.115264036
-0.023342267 0.13076232 -0.025397602 -0.095187865 0.0153424265 0.017376848 0.059583314 -0.037300292
0.071905956 -0.0591344 -0.057227768 0.118542545 -0.09264157 -0.04526555 0.05783357 0.02958517
-0.034391105 0.059295904 -0.1459944 0.32929644 -0.14658254 -0.100165226 0.036298987 -0.08660067
0.034846205 0.052048195 -0.014925851 -0.1390623 -0.020219011 -0.02674784 -0.06671632 0.0061977925
0.09170367 0.074398674 0.04529275 -0.09010748 0.101844035 0.0006256484 0.026738735 0.096451245
-0.040972613 0.02173301 0.116811484 -0.15054773 0.01707591 0.054058332 0.08961962 0.06863544
0.055192113 0.025168475 0.21756484 0.041890237 -0.032918595 -0.019778078 -0.033871166 -0.11552898
-0.083537996 -0.10347177 -0.03541558 0.010578795 0.05994891 0.014017563 0.0871258 0.078653865
-0.009578739 0.03509526 0.06871553 0.005630489 -0.00070290617 0.058958344 -0.05278657 0.06694899
0.034326743 -0.030732697 0.101256564 0.0185286 -0.08406285 0.011218662 -0.011750695 -0.096788004
0.072227746 0.045417354 -0.083599724 -0.027396647 0.024289224 -0.01917188 -0.018884368 0.26267454
-0.018521154 0.039669532 0.040905934 -0.17689401 -0.08266851 -0.019366542 -0.07531325 -0.077088594
0.093416505 -0.112117596 -0.027279638 -0.09844945 0.026329497 0.09151532 -0.18064511 -0.074549325
0.0060687256 0.09692141 -0.020137766 0.041309856 -0.021077922 -0.018436301 -0.028508192 0.05836882
-0.10190519 -0.03957304 -0.009586539 0.18604808 0.0026671535 0.062060412 -0.041237995 0.08453411
-0.06451213 0.050858915 0.019550094 0.04139434 0.13036126 -0.042587627 0.07905227 -0.04274446
-0.04340151 -0.092217304 -0.04154896 0.038264956 -0.037238505 -0.055975843 -0.10686081 -0.106292434
-0.05132528 -0.06462878 0.16564593 0.23899911 0.072878346 -0.061427113 -0.022832643 0.08291236
0.042274263 -0.009719645 0.0035593912 -0.18690321 -0.08412917 -0.038662065 -0.10083047 -0.0017739597
-0.032544084 0.09825267 -0.012645133 0.063899204 0.049490016 0.06151141 0.014028021 -0.081211254
0.0057567004 -0.0798192 -0.061659675 -0.034906436 0.0030558957 0.116134085 -0.011332641 0.049744654
0.123213895 0.06550546 -0.039333142 -0.029641619 0.082689986 0.07969902 0.08399575 0.060633905
0.10792959 0.026330799 0.09178605 0.02801577 0.019829657 0.053338252 -0.015961548 -0.038147762
-0.13004193 0.13490976 -0.1209196 0.078129105 -0.034116294 -0.052401137 -0.034791693 0.09263041
